mnist_mlp.pth (torch, 475740 bytes, 6 tensors)

fc1.weight f4 [128, 784]
0	0x3c343178	0.010998122
1	0xbc1dfa12	-0.009642141
2	0xbc9f0cea	-0.019415338
3	0x3bb89830	0.0056333765
4	0x3cc213b8	0.023691043
5	0x3cf0db7a	0.02940153
6	0x3c2bf95c	0.010496464
7	0xbd012cce	-0.03153687
8	0xbd0424ce	-0.032261662
9	0xba23fa80	-0.0006255284
10	0x3c4b5d34	0.012412358
11	0xbc901565	-0.017588327
12	0x3c7e6e80	0.015529275
13	0xbc35f7dc	-0.011106458
14	0x3cba90b8	0.022774085
15	0xbcb89045	-0.02252973
16	0x3cd3a48e	0.025835302
17	0x3ccdf9aa	0.025143463
18	0xbc259160	-0.010105461
19	0x3c0bf050	0.008541182
20	0x3b8477b8	0.004042592
21	0xbaa9a560	-0.0012942962
22	0xbcfaf073	-0.030632233
23	0xbc806985	-0.015675316
24	0xbba10494	-0.004913876
25	0xbcbd61ee	-0.023117986
26	0xbc07d07c	-0.008289453
27	0xbd0d3db8	-0.034482688
28	0x3caff4ba	0.021479
29	0x3cc37c92	0.02386311
30	0x3c1ef6a8	0.009702362
31	0x3cfe6aa2	0.031056706
32	0xbcc13e35	-0.023589233
33	0x3c0ebe40	0.008712351
34	0xbba5ea1c	-0.0050633084
35	0xbd007969	-0.031365786
36	0xbc89da81	-0.016827824
37	0xbd318084	-0.043335453
38	0xbcf8c15f	-0.030365644
39	0xbce17ba6	-0.02752478
40	0xbcfc2e73	-0.030783867
41	0xbc7d804a	-0.015472481
42	0xbdad79fe	-0.08470534
43	0xbde1ca18	-0.110248744
44	0xbd8df543	-0.069315456
45	0x3cf43c12	0.0298138
46	0x3d10f337	0.035388198
47	0x3bcecca8	0.006311018
48	0x3cd3d0fe	0.025856491
49	0xb9375d00	-0.00017486885
50	0xbc383920	-0.011244088
51	0x3c8e3618	0.017359778
52	0x3be08110	0.006851323
53	0x3ca650b6	0.020302158
54	0xbc45dce6	-0.012076592
55	0x3d08a26f	0.033358034
56	0x3c9b61e6	0.01896758
57	0xbd0f61a5	-0.03500523
58	0x3a754080	0.00093556195
59	0x3cc022c2	0.023454074
60	0xbc2855ea	-0.01027439
61	0x39fd008e	0.00048256334
62	0xbdb0ae88	-0.08627039
63	0xbdcc42f9	-0.099737115
64	0xbd099121	-0.03358567
65	0x3c6d509a	0.014484549
66	0xbd87467d	-0.066052414
67	0xbd1f27b6	-0.03885623
68	0xbcabde73	-0.020980095
69	0xbdec4291	-0.11536134
70	0xbe3468ca	-0.17618099
71	0xbd670daa	-0.056409515
72	0xbd5a78a7	-0.05333772
73	0xbd14ff5f	-0.036376353
74	0xbd98f899	-0.07469291
75	0xbd34874c	-0.04407434
76	0xbd207bc6	-0.03918054
77	0xbcc95ff1	-0.024581881
78	0x3aff961e	0.0019499694
79	0xbcba00ff	-0.022705553
80	0x3b213780	0.002459973
81	0xbd104ad8	-0.035227627
82	0x3cbdf6b8	0.023188934
83	0xbc92d3ec	-0.017923318
84	0x3cb59538	0.02216588
85	0xbce14ae3	-0.02750153
86	0xba29e140	-0.0006480403
87	0x3cc70618	0.024294898
88	0xbc1f8f85	-0.009738808
89	0x3bb4b941	0.005515248
90	0xbc897572	-0.016779635
91	0xbdf5c998	-0.120013416
92	0xbbfa1c4c	-0.007632768
93	0x3dc306a9	0.09522755
94	0x3decbc00	0.11559296
95	0x3d009acf	0.031397637
96	0xbd63b693	-0.05559404
97	0xbe127adc	-0.1430468
98	0xbe19d4bd	-0.1502256
99	0xbe81bded	-0.25340214
100	0xbe7047a7	-0.23464833
101	0xbe3cd552	-0.1844075
102	0xbdbfd79b	-0.09367295
103	0xbe14e48e	-0.14540312
104	0xbe0e25a7	-0.1388155
105	0xbe2f5d47	-0.17125426
106	0xbcbfbda8	-0.023405865
107	0x3d309b33	0.04311676
108	0x3d83fe19	0.0644495
109	0x3cfa2a2a	0.030537684
110	0xbcdaef53	-0.026725447
111	0xbc2191bc	-0.009861406
112	0xbcb64a70	-0.022252291
113	0xbd02297f	-0.031777855
114	0xbc1160c0	-0.008873165
115	0xbc61c081	-0.013778807
116	0xbdc05748	-0.093916476
117	0xbc6dfb6a	-0.014525274
118	0x3cc8bd48	0.024504319
119	0x3ac7160d	0.0015189067
120	0x3de5fa07	0.112293296
121	0x3d92f54f	0.07175695
122	0x3deb359a	0.11484833
123	0xbc056153	-0.00814088
124	0x3cdc366e	0.026881423
125	0xbd17013b	-0.036866408
126	0xbde7890e	-0.11305438
127	0xbdd6431e	-0.1046202
128	0xbd6ac67e	-0.057318203
129	0xbb5c8286	-0.0033647134
130	0x3abc9183	0.0014386628
131	0xbd69b043	-0.057052862
132	0xbdd8d976	-0.105883524
133	0xbe2a2e70	-0.16619277
134	0xbcb34bb1	-0.021886678
135	0x3d074a81	0.033030037
136	0x3dce1e1d	0.100643374
137	0x3c5540d1	0.013015942
138	0xbbd222c8	-0.0064128377
139	0x3d030d37	0.031995025
140	0x3b5f63e0	0.003408663
141	0xbcc565d8	-0.024096414
142	0xbb0566d6	-0.0020355484
143	0xbdb9692d	-0.09053264
144	0xbdb87fde	-0.09008764
145	0x3c2ab631	0.010419414
146	0x3e04fd5e	0.12987277
147	0x3dbeb9b1	0.093127616
148	0x3e5474d0	0.20747685
149	0x3daf1870	0.08549583
150	0xbdb7c034	-0.08972207
151	0xbd86b862	-0.06578137
152	0x3cf166cb	0.02946796
153	0x3d4f0d8d	0.050550032
154	0x3c58757a	0.013211602
155	0xbd82a919	-0.06379909
156	0xbdd9cff9	-0.10635371
157	0xbd5a768b	-0.053335708
158	0xbde19e27	-0.11016493
159	0xbe30d6e0	-0.17269468
160	0xbde68b8a	-0.11257084
161	0xbd9593b4	-0.07303563
162	0x3befc4d2	0.007317164
163	0x3e41ec71	0.18937851
164	0x3e3cf399	0.184523
165	0x3e373e63	0.17894892
166	0x3d8fed59	0.07027692
167	0x3d879f97	0.06622236
168	0xbcf80f2c	-0.030280672
169	0xbce45985	-0.027874717
170	0x3df98dd1	0.121852525
171	0x3ddca3f5	0.1077346
172	0x3d7e1421	0.062030915
173	0x3d78168f	0.06056839
174	0xbbf8e8ea	-0.007596125
175	0x3c9c2fa4	0.019065686
176	0x3db9e657	0.09077137
177	0xbdc3a221	-0.09552408
178	0xbe0ac238	-0.13550651
179	0x3cbbb197	0.02291183
180	0x3de09b02	0.109670654
181	0x3d8afb66	0.06786232
182	0x3d4ea772	0.050452657
183	0xbe03d7f1	-0.12875344
184	0xbe208092	-0.15674046
185	0xbdfa429c	-0.12219736
186	0xbdcfcb0b	-0.10146149
187	0xbd7cffc7	-0.061767366
188	0xbd640d5a	-0.055676796
189	0x3d942350	0.07233298
190	0x3d896afc	0.06709859
191	0x3d94bd99	0.072627254
192	0x3e2bcc03	0.16777043
193	0x3e01fe17	0.12694584
194	0xbcf971ef	-0.030449836
195	0x3db047dd	0.08607457
196	0xbcac30f0	-0.021019429
197	0x3dd3113b	0.10306021
198	0x3de68fac	0.11257872
199	0x3db0cad8	0.086324394
200	0x3d75c21f	0.05999958
201	0xbd9ec01d	-0.077514865
202	0x3ca1ec65	0.019766042
203	0x3da93a26	0.08263044
204	0xbd39cbd3	-0.045360398
205	0xbcf5e200	-0.030014992
206	0x3d3a7e8e	0.04553085
207	0x3d1790c6	0.0370033
208	0x3db4b706	0.088239715
209	0x3a559e48	0.0008148891
210	0xbcb14613	-0.02163986
211	0xbd96b2d2	-0.07358326
212	0xbde7e7ed	-0.11323533
213	0xbdb4ad8f	-0.08822166
214	0xbd42a46a	-0.04752008
215	0xbd1f691c	-0.0389186
216	0xbda0c2ac	-0.07849631
217	0xbdc776ad	-0.097394325
218	0x3c241ca0	0.01001659
219	0x3e0fb415	0.1403354
220	0x3e36cdec	0.1785199
221	0x3e74edd7	0.23918854
222	0x3db66a8a	0.089070395
223	0x3d7632be	0.060106985
224	0x3d09e029	0.03366104
225	0x3e460654	0.19338351
226	0x3def450e	0.11683093
227	0xbd282f8c	-0.04106097
228	0x3cdd2f21	0.027000012
229	0xbdb011fd	-0.08597181
230	0xbcb9f1ba	-0.022698272
231	0x3d2c62cd	0.04208641
232	0xbd12654f	-0.035741147
233	0xbcab3ac4	-0.020902045
234	0x3c9e9fcc	0.019363306
235	0x3d5ec9d1	0.054391686
236	0x3d92ad53	0.07161965
237	0x3cf54d7e	0.029944178
238	0xbd4199a8	-0.04726568
239	0xbddeb2d3	-0.10873952
240	0xbe31fab7	-0.17380796
241	0xbdc4270c	-0.0957776
242	0xbd3422cd	-0.0439785
243	0xbdb25d94	-0.08709255
244	0x3bc2bd84	0.005943002
245	0xbc80716a	-0.01567908
246	0x3d2494ba	0.0401809
247	0x3d90ce6a	0.0707062
248	0x3e6c14b4	0.23054773
249	0x3e60ba07	0.21945964
250	0x3ce6b52a	0.028162558
251	0x3de41608	0.111370146
252	0x3d2356b9	0.039877627
253	0x3df93df9	0.121700235
254	0xbd154827	-0.036445763
255	0xbc720f20	-0.014774114

fc1.bias f4 [128]
0	0x3e134e28	0.14385283
1	0x3d1dfd11	0.03857142
2	0x3d04e941	0.03244901
3	0x3d789b23	0.060694825
4	0x3d330adb	0.043711524
5	0xbd6b9014	-0.05751045
6	0xbe07b82f	-0.13253854
7	0x3a87272c	0.0010311357
8	0x3d78448c	0.060612246
9	0xbdd12e60	-0.102139235
10	0xbd0db3f1	-0.034595434
11	0xbd285ba5	-0.041103024
12	0xbd360824	-0.044441357
13	0x3db95fad	0.09051452
14	0x3d2383c8	0.0399206
15	0xbd0f0647	-0.034918096
16	0x3d36152e	0.044453792
17	0x3c0b0c03	0.008486751
18	0xbd867da2	-0.06566931
19	0x3e02e1ae	0.12781402
20	0x3db0ea8f	0.086384885
21	0x3c2bd690	0.010488167
22	0x3d604eda	0.0547627
23	0xbd376bc5	-0.04478051
24	0xbdf79abd	-0.12090061
25	0x3d363dc4	0.044492498
26	0xbda2e279	-0.079533525
27	0xbd861011	-0.06546033
28	0x3dc01d49	0.09380586
29	0x3ceb4847	0.028720988
30	0xbba1eaea	-0.004941334
31	0xbc1a112c	-0.009403508
32	0xbd19d522	-0.037556775
33	0xbba867cc	-0.0051393267
34	0xbcf4e932	-0.029896352
35	0x3d82480e	0.063613996
36	0xbc570c55	-0.013125499
37	0xbe1e78c5	-0.15475757
38	0x3db94d44	0.090479404
39	0xbdc9fdc9	-0.09862859
40	0x3ddd6c51	0.10811675
41	0xbd6168f9	-0.05503175
42	0xbd2b17f2	-0.041770883
43	0x3e498f39	0.19683541
44	0xbcec2c3f	-0.028829692
45	0xbdf111fd	-0.11771009
46	0xbd189e6e	-0.037260465
47	0x3dd3266d	0.103100635
48	0x3d8c7cbc	0.06859729
49	0x3e3b0e96	0.18267283
50	0x3d074d50	0.033032715
51	0x3ca0eadb	0.019643238
52	0x3ca474b8	0.020075187
53	0x3d47a443	0.048740637
54	0x3b8da469	0.0043225777
55	0x3d65c442	0.05609537
56	0x3dc3c804	0.09559634
57	0x3d08c58a	0.033391513
58	0xbdd4cc38	-0.10390514
59	0x3c052282	0.008125903
60	0x3d8b1987	0.06791978
61	0x3daf91c3	0.08572724
62	0xbb0d81ec	-0.0021592332
63	0xbc5c1bb0	-0.013434336
64	0x3d239b1c	0.039942846
65	0xba3298f4	-0.0006812953
66	0x3e1bb102	0.15204242
67	0x3d71ddc1	0.05904937
68	0xbc97259f	-0.018450556
69	0x3cc69248	0.024239674
70	0x3d39e764	0.045386687
71	0x3d056a50	0.03257209
72	0xbd3625a2	-0.044469483
73	0x3da6658c	0.08124837
74	0xbe191bb3	-0.14951973
75	0x3dfbcfb2	0.12295474
76	0x3dcc94d9	0.09989328
77	0x3d92f3f2	0.07175435
78	0xbdad6481	-0.08466435
79	0x3dadb680	0.08482075
80	0xbdf1897f	-0.117938034
81	0x3d71ec16	0.05906304
82	0x3d75e6e0	0.060034633
83	0xbc63ed2b	-0.013911526
84	0xbd0a4d58	-0.033765167
85	0xbd12aa8c	-0.035807177
86	0x3d249fa5	0.04019131
87	0xbe0ee871	-0.13955857
88	0xbd2a9816	-0.041648947
89	0xbd7bbabe	-0.061457388
90	0x3d1fa347	0.038974073
91	0x3ca670e4	0.020317502
92	0x3dea9f60	0.114561796
93	0x3d95ec2e	0.07320438
94	0xbc6e509b	-0.014545585
95	0x3cd4d4e0	0.025980413
96	0xbce1a2f9	-0.027543532
97	0x3df5c54d	0.12000523
98	0x3d66068a	0.05615858
99	0xbd42a765	-0.04752292
100	0xbd8e2613	-0.06940856
101	0xbe085483	-0.13313489
102	0x3d9ba7b9	0.0760035
103	0xbd09efcb	-0.03367595
104	0x3d6b7e5b	0.05749355
105	0x3dd48a86	0.10377984
106	0xbbfbbe49	-0.007682596
107	0x3d8a87cf	0.06764185
108	0xbcedad2b	-0.029013237
109	0xbd194411	-0.03741843
110	0x3d880b4b	0.06642779
111	0xbcc0f741	-0.0235554
112	0xbcc1bf59	-0.023650812
113	0x3c93f260	0.01805991
114	0x3cbe2139	0.023209201
115	0x3dd7d95c	0.10539505
116	0xbd40c490	-0.047062457
117	0x3c36e333	0.011162567
118	0x3bb3275c	0.0054673385
119	0xbc97ed33	-0.018545723
120	0x3d4acfcd	0.04951458
121	0xbd1fa2e1	-0.038973693
122	0xbd82342f	-0.063576095
123	0xbd19273d	-0.037390936
124	0x3e489800	0.19589233
125	0x3d32b301	0.043627743
126	0x3dcf5b9a	0.101248935
127	0x3cd2793d	0.025692577

fc2.weight f4 [128, 128]
0	0x3d6d25ae	0.057897262
1	0xbd139449	-0.036030088
2	0x3d55e251	0.052217785
3	0xbd40676b	-0.046973627
4	0xbd98ee81	-0.07467366
5	0xbdfbef60	-0.123015165
6	0x3d2d8708	0.042365104
7	0xbcbe111a	-0.023201514
8	0xbd850fb7	-0.06497138
9	0x3d306ce1	0.043072585
10	0xbe38adc9	-0.18035044
11	0xbd986957	-0.07441967
12	0x3d5b3492	0.05351693
13	0xbebaf058	-0.36511493
14	0x3aae439c	0.0013295296
15	0x3e1e828b	0.15479486
16	0x3e581c45	0.21104534
17	0xbdbc69f6	-0.09199898
18	0xbe8d7b0c	-0.2763294
19	0xbe7bfd5c	-0.24608368
20	0x3c2480a5	0.010040437
21	0xbb3ea9c1	-0.002909288
22	0xbec344fd	-0.3813857
23	0xbe9b37a3	-0.30315885
24	0x3d84822b	0.0647014
25	0x3d1e8c79	0.038708184
26	0xbda26bcd	-0.079307176
27	0x3b0f3071	0.0021848942
28	0xbbc51cfa	-0.006015417
29	0x3de9f1c9	0.1142307
30	0xbe0ef9f5	-0.13962539
31	0x3e41aa6f	0.18912672
32	0xbe1b2988	-0.15152562
33	0x3da35995	0.07976071
34	0xbc3c117b	-0.011478777
35	0x3b954f09	0.004556541
36	0xbdbe5a3d	-0.09294555
37	0x3cf329c6	0.029683005
38	0x3ea90622	0.3301249
39	0xbe298079	-0.16552915
40	0x3da42706	0.08015256
41	0x3ddb3d68	0.10705072
42	0xbe8a3660	-0.2699461
43	0x3e0b93d0	0.13630605
44	0x3ce88a4d	0.02838626
45	0xbd68e585	-0.056859512
46	0x3d7d710b	0.061875384
47	0xbe17a58b	-0.14809243
48	0xbda02f2c	-0.07821497
49	0xbe52f373	-0.20600681
50	0x3db4c35c	0.08826324
51	0x3defb25b	0.117039405
52	0xbd3827c7	-0.04495981
53	0xbdd8ecb1	-0.1059202
54	0xbd172a45	-0.036905546
55	0xbda8938d	-0.08231268
56	0xbe0bc3a1	-0.13648845
57	0x3d5fb86b	0.054619234
58	0xbd77c70c	-0.06049256
59	0x3ced5af4	0.028974034
60	0xbe390d74	-0.18071538
61	0x3e29c7dc	0.16580147
62	0x3e1882d7	0.14893661
63	0x3ac8ac72	0.0015310182
64	0x3da6239b	0.0811226
65	0xbe3ba4d8	-0.18324602
66	0x3d9f2d5a	0.07772322
67	0xbc467d85	-0.012114887
68	0xbd777e27	-0.060423043
69	0x3dd5b59a	0.104350284
70	0x3cd75309	0.026284711
71	0xbc8f1b24	-0.017468996
72	0xbd839ba7	-0.06426173
73	0xbccffbd9	-0.025388645
74	0x3da60245	0.08105902
75	0x3d7771e9	0.060411368
76	0x3b148caa	0.002266685
77	0xbdfcda22	-0.12346293
78	0x3e469019	0.19390906
79	0xbde6fefa	-0.11279102
80	0x3d426fff	0.04747009
81	0x3daa279d	0.08308337
82	0xbe4b6c6f	-0.19865583
83	0x3e1d9dca	0.15392223
84	0x3df2331a	0.11826153
85	0xbe3c2ba0	-0.18376017
86	0xbe8ab05e	-0.27087682
87	0x3de70231	0.11279715
88	0x3d91378c	0.07090673
89	0x3d8dfd77	0.0693311
90	0x3e2b4868	0.1672684
91	0xbe0130b5	-0.12616237
92	0xbd9d9e32	-0.07696189
93	0xbde05840	-0.10954332
94	0x3bd9bb86	0.006644669
95	0xbe4cd426	-0.20002803
96	0x3e566b67	0.20939408
97	0xbdab79e7	-0.083728604
98	0x3d4b0f92	0.049575396
99	0xbddb25b6	-0.10700552
100	0x3cdd16c5	0.026988396
101	0xbe00ede8	-0.12590754
102	0x3e1543ec	0.14576691
103	0xbd04a36a	-0.032382406
104	0x3de4898a	0.11159046
105	0xbdaf0c4c	-0.08547267
106	0x3cd67c81	0.026182415
107	0x3d741cfc	0.059597954
108	0xbe67cc6b	-0.22636573
109	0x3e3a98dc	0.18222374
110	0xbe883e03	-0.2660981
111	0xbd13bee3	-0.036070716
112	0xbdcb3d26	-0.099237725
113	0xbbe86000	-0.007091522
114	0xbdee2df7	-0.11629861
115	0x3e0c7080	0.1371479
116	0xbea6fded	-0.32615605
117	0xbdb109ae	-0.086444244
118	0x3ce42b99	0.02785282
119	0x3cdf621e	0.027268466
120	0x3e064e56	0.1311582
121	0x3a91f269	0.0011134866
122	0xbc49e52e	-0.012322707
123	0xbe3c616d	-0.1839654
124	0x3e010f13	0.12603407
125	0x3e67948d	0.22615261
126	0xbdec036e	-0.11524092
127	0x3dc60ac9	0.09670026
128	0x3c9665eb	0.018359145
129	0xbd6215a2	-0.055196412
130	0x3ce308e9	0.02771421
131	0x3d374f69	0.044753466
132	0x3d8292ea	0.06375678
133	0xbd3f8560	-0.046758056
134	0x3d151ea0	0.03640616
135	0x3d225b01	0.03963757
136	0x3c7c4a73	0.015398609
137	0x3d1d399d	0.038385022
138	0x3d69ce74	0.057081655
139	0x3c341a24	0.010992561
140	0xbb8431c5	-0.0040342533
141	0x3e26d2c6	0.16291341
142	0x3aae9a90	0.001332121
143	0xbe384555	-0.17995198
144	0xbe32a5d7	-0.17446075
145	0x3d00891e	0.031380765
146	0x3dfd5e3d	0.1237149
147	0xbd7607b2	-0.060065933
148	0x3db4f835	0.08836404
149	0xbbfb82db	-0.0076755113
150	0x3d38d292	0.04512269
151	0x3e30a43d	0.17250152
152	0x3ccc96fd	0.02497434
153	0xbd6a3b4a	-0.05718545
154	0x3dcd469d	0.10023234
155	0x3e1ffedf	0.1562457
156	0xbe2dbb88	-0.16966069
157	0x3d925dd6	0.07146804
158	0x3d9fe1bf	0.078067295
159	0x3eb8dc46	0.36105555
160	0x3e19e631	0.15029217
161	0x3e90c1a5	0.2827274
162	0x3e048f37	0.12945257
163	0xbd70ea95	-0.058817465
164	0xbdda11f1	-0.10647953
165	0x3dd10365	0.102057256
166	0xbe8ecbbb	-0.2788981
167	0xbca61f94	-0.02027873
168	0x3d2a9471	0.04164547
169	0x3e0007a6	0.12502918
170	0x3da0a155	0.07843272
171	0xbe4186aa	-0.18899027
172	0xbd3719f9	-0.044702504
173	0x3daff891	0.08592332
174	0xbdb5dd39	-0.088800855
175	0xbd533dca	-0.0515726
176	0xbe289875	-0.16464408
177	0xbdb9cd6c	-0.09072384
178	0x3cb5a511	0.022173436
179	0x3dfc0473	0.12305536
180	0xbdd0ea2c	-0.10200915
181	0xbd673269	-0.05644456
182	0x3d1225e6	0.035680674
183	0xbdee15a4	-0.11625221
184	0xbc4f2ee2	-0.012645455
185	0xbc5b1818	-0.013372444
186	0x3b0bd21a	0.0021334947
187	0x3d03e398	0.032199472
188	0xbd58668c	-0.05283217
189	0xbeadeb0e	-0.33968395
190	0x3c830f9c	0.015998654
191	0x3d98612c	0.07440409
192	0xbe6a690c	-0.22891635
193	0x3dae0695	0.08497349
194	0x3e22ee65	0.15911253
195	0xbe0c66a4	-0.1371103
196	0xbe845e62	-0.25853258
197	0xbd1953ae	-0.03743332
198	0xbdc90b44	-0.09816602
199	0xbe42b22c	-0.1901328
200	0xbb6dcc60	-0.0036285147
201	0xbe08b127	-0.13348828
202	0x3e0e0fa5	0.13873155
203	0xbc30165d	-0.010747519
204	0x3d7290d0	0.059220135
205	0xbdf3c1e9	-0.1190222
206	0xbe637ac5	-0.22214802
207	0xbe7ff5ff	-0.24996184
208	0x3dd7a284	0.10529044
209	0xbdec4718	-0.115369976
210	0xbe2a56e7	-0.16634713
211	0xbd08990e	-0.03334909
212	0xbe845119	-0.25843123
213	0x3ae7d1cf	0.0017686429
214	0x3e22598d	0.15854473
215	0x3e376d88	0.17912877
216	0xbe314c52	-0.1731427
217	0xbdf3d88a	-0.11906536
218	0xbeacd249	-0.33754185
219	0xbd8d13e7	-0.06888562
220	0xbe1a2827	-0.1505438
221	0xbdd8d11f	-0.10586762
222	0xbdab19be	-0.08354519
223	0x3de66304	0.112493545
224	0x3ce16a87	0.027516617
225	0xbdc5e90c	-0.09663591
226	0xbce6e221	-0.028183999
227	0xbd1583b3	-0.03650255
228	0x3dbba877	0.091629915
229	0x3c531196	0.012882611
230	0xbe739b91	-0.23789813
231	0x3e2912a2	0.16511014
232	0xbe3c653d	-0.18397994
233	0xbe2bfb30	-0.16795039
234	0x3ddeaeb0	0.10873163
235	0xbe183fed	-0.14868136
236	0xbbaa3cac	-0.005195221
237	0xbe7f5abe	-0.24936959
238	0xbe8f99ab	-0.28046927
239	0x3b8b06d6	0.0042427583
240	0x3ca3f987	0.020016445
241	0xbe15480f	-0.1457827
242	0xbd4c7d7b	-0.049924355
243	0xbe822b0f	-0.25423476
244	0x3e00caab	0.12577312
245	0x39e7f365	0.00044241096
246	0x3e4eefca	0.2020866
247	0xbdb5e9bc	-0.08882472
248	0xbed01457	-0.40640518
249	0x3ccbcfe3	0.024879402
250	0x3d0700aa	0.032959618
251	0x3e099288	0.13434803
252	0xbe91281a	-0.28350908
253	0xbe730c36	-0.23735127
254	0xbde744e7	-0.11292439
255	0xbd1db874	-0.038505986

fc2.bias f4 [128]
0	0x3e15847d	0.14601322
1	0xbd62b903	-0.055352222
2	0x3dafe26e	0.0858811
3	0xbda58dba	-0.08083673
4	0xbdb05ef3	-0.0861186
5	0x3c9b53a0	0.018960774
6	0x3cd113ab	0.025522074
7	0xbd9c9abf	-0.07646703
8	0x3e6bc03d	0.23022552
9	0x3d86d397	0.06583326
10	0x3d90dd66	0.070734784
11	0x3c82ce7a	0.015967596
12	0x3e197ac7	0.14988242
13	0x3dfd7991	0.123767026
14	0x3d996c4c	0.07491359
15	0x3d8a0695	0.06739537
16	0x3d99d7d0	0.07511866
17	0xbdaaa8cb	-0.08332976
18	0xbd3714e8	-0.044697672
19	0x3e8420dc	0.2580632
20	0x3caa9bea	0.020826299
21	0x3c87d1cf	0.016579537
22	0x3e5d71f6	0.21625504
23	0xbde8f838	-0.11375469
24	0xbd2c9c24	-0.042141095
25	0x3e34ff36	0.1767548
26	0x3d0ac686	0.033880733
27	0x3deafbbd	0.114737965
28	0x3db1fa29	0.086902924
29	0xbd21dbeb	-0.03951637
30	0xbc90196e	-0.01759025
31	0x3965efac	0.00021928427
32	0x3d3ebc3c	0.046566233
33	0x3e019c03	0.1265717
34	0x3e575d18	0.21031606
35	0x3c69c265	0.014267539
36	0x3d782209	0.060579333
37	0x3d59ab4e	0.053141885
38	0xbc1fc3ef	-0.009751304
39	0x3da0d5bb	0.07853266
40	0x3e038858	0.1284498
41	0x3d959ad0	0.07304919
42	0x3d22dc7b	0.039761048
43	0xbd776932	-0.060403056
44	0x3e1b2511	0.15150858
45	0x3de6107d	0.11233614
46	0x3e837bca	0.2568038
47	0xbd830520	-0.06397462
48	0x3c002da5	0.0078233825
49	0xbd940ed2	-0.07229389
50	0x3ce25735	0.027629474
51	0x3e4a6db2	0.19768408
52	0x3c55e534	0.013055135
53	0xbdff9167	-0.12478905
54	0x3e03e751	0.12881209
55	0x3e2456db	0.16048758
56	0xbd38525f	-0.04500043
57	0x3dccc596	0.09998624
58	0x3e3977ba	0.18112078
59	0xbdf65ff0	-0.120300174
60	0x3e45cba3	0.19315962
61	0x3cd71686	0.026255857
62	0x3cd6c76c	0.026218139
63	0x3dc5db74	0.09660998
64	0x3df1ebcd	0.118125536
65	0x3dea44b5	0.11438886
66	0xbce3c0a9	-0.027801828
67	0xbd7cf3ca	-0.061755933
68	0x3d826ebd	0.06368778
69	0x3dc5c904	0.09657481
70	0xbe2cf195	-0.16889031
71	0x3e0416f3	0.1289938
72	0x3e74e7b3	0.23916511
73	0xbdc42e2f	-0.09579121
74	0xbcba39b0	-0.022732586
75	0x398460ab	0.00025249025
76	0x3e0aeec8	0.1356765
77	0xbd82f49a	-0.0639431
78	0x3d3ea882	0.04654742
79	0xbcbbe2da	-0.02293532
80	0x3dd8a75e	0.10578798
81	0xbc6c9597	-0.014439962
82	0x3e2490f2	0.16070917
83	0x3d739bf8	0.059474915
84	0x3ddc5841	0.107590206
85	0xbca68840	-0.020328641
86	0xbd0871ed	-0.033311773
87	0x3c01ae68	0.007915117
88	0x3d7b6701	0.06137753
89	0x3ceb8563	0.028750127
90	0x3db64371	0.08899582
91	0x3d2cd656	0.042196594
92	0x3d8c319f	0.06845402
93	0x3d9025a4	0.070384294
94	0x3c8f62c5	0.017503152
95	0x3afeaebb	0.0019430736
96	0x3dce54d6	0.10074775
97	0x3dabfded	0.08398042
98	0xbdb0a306	-0.08624844
99	0x3db96c57	0.09053867
100	0x3d871b8b	0.0659705
101	0x3e14246c	0.14467019
102	0x3cb5c66e	0.022189345
103	0x3e1a668c	0.15078181
104	0x3c4a6e89	0.012355455
105	0x3dbe3a9f	0.09288525
106	0xbd9d578c	-0.07682714
107	0x3dfa2d81	0.122157104
108	0x3d879bc3	0.06621506
109	0x3c412556	0.011788687
110	0x3d55e0f3	0.05221648
111	0x3e3fb09f	0.1871972
112	0x3d0a0652	0.033697434
113	0x3e92cb4b	0.28670725
114	0x3df97ca6	0.12181978
115	0xbcdec281	-0.027192356
116	0x3deed178	0.11661047
117	0x3ce0b764	0.027431197
118	0x3d96bd7f	0.07360362
119	0xbdeab3c8	-0.11460072
120	0x3e08a421	0.1334386
121	0x3e38a268	0.18030703
122	0xbe4d478a	-0.20046821
123	0x3e748a38	0.23880851
124	0xba6562cd	-0.0008750379
125	0x3e293f74	0.16528112
126	0x3e2d3015	0.16912873
127	0xbcdb4f05	-0.026771078

fc3.weight f4 [10, 128]
0	0x3dfb8997	0.122821026
1	0xbe707c75	-0.23484977
2	0xbea47b4a	-0.32125312
3	0xbe1b5151	-0.15167738
4	0x3e390219	0.18067206
5	0x3e04b972	0.12961367
6	0xbd7eaec2	-0.06217838
7	0xbd3899de	-0.045068614
8	0x3e13e11c	0.14441341
9	0xbe1d19db	-0.15341894
10	0xbdc19627	-0.094524674
11	0xbebc69fa	-0.36799604
12	0x3e882b63	0.265956
13	0x3e26d507	0.16292201
14	0x3e5162cc	0.20447844
15	0xbe1afccf	-0.15135501
16	0x3da8acf5	0.08236114
17	0xbddf0259	-0.1088912
18	0xbd8ad09f	-0.067780726
19	0xbe87b23a	-0.26503164
20	0x3e33c86e	0.17556927
21	0x3d204b4c	0.03913431
22	0xbda753a0	-0.08170247
23	0xbe00479f	-0.12527321
24	0x3db035ad	0.08603988
25	0x3dc0c64b	0.094128214
26	0xbe619af9	-0.22031774
27	0x3d917b8b	0.07103642
28	0xbecee4b8	-0.40408874
29	0xbe3d7a4d	-0.18503685
30	0xbd9c0ff0	-0.07620227
31	0xbdc33e24	-0.09533337
32	0x3c9b579b	0.018962672
33	0xbe1f4ce9	-0.15556683
34	0xbe3b49ec	-0.18289918
35	0x3d9350f6	0.071931764
36	0x3dd4c75e	0.10389589
37	0xbe063d73	-0.13109379
38	0xbdb70735	-0.089369215
39	0x3e3c7770	0.18404937
40	0xbeb48288	-0.35255837
41	0x3e1220b9	0.14270295
42	0xbdb1cc06	-0.086814925
43	0xbe254e8b	-0.16143243
44	0xbd8558e0	-0.06511092
45	0xbe4f7dd4	-0.20262843
46	0xbeb6ae06	-0.35679644
47	0xbe81ddf4	-0.2536465
48	0xbe89030c	-0.26760137
49	0xbec98b2c	-0.39363992
50	0xbe9d7888	-0.3075602
51	0x3e322858	0.17398202
52	0xbe126501	-0.14296342
53	0xbbe300b3	-0.0069275736
54	0xbdcd4f31	-0.1002487
55	0xbd995db5	-0.07488576
56	0x3e7742a5	0.24146517
57	0xbe060a26	-0.13089809
58	0x3d97f37f	0.0741949
59	0xbe9e36f8	-0.30901313
60	0x3dcaa43e	0.09894608
61	0x3e263404	0.1623078
62	0x3d2bc079	0.041931603
63	0x3d75b11b	0.059983354
64	0x3d07ba04	0.033136383
65	0xbe3ceeb8	-0.18450439
66	0xbd2c7498	-0.04210338
67	0x3d44ed92	0.048078127
68	0x3d8e7eba	0.06957765
69	0x3e2171d3	0.15766077
70	0x3db3f779	0.08787436
71	0x3d987e10	0.074459195
72	0xbe74f6e4	-0.23922306
73	0xbea4ec3f	-0.3221149
74	0x3e1ba550	0.1519978
75	0x3df9fe18	0.12206668
76	0x3ca54531	0.020174595
77	0xbd958907	-0.073015265
78	0xbe06ea1b	-0.13175242
79	0xbdfb4f3a	-0.12270971
80	0x3decf22a	0.11569627
81	0xbde69e90	-0.11260712
82	0x3dbe3bbc	0.09288737
83	0x3e2e5abf	0.17026804
84	0xbdaea9c7	-0.08528476
85	0x3df64883	0.12025549
86	0x3d8b2207	0.067935996
87	0x3e4a3f1f	0.19750641
88	0xbe5617ea	-0.2090756
89	0xbdbed7ed	-0.09318528
90	0xbeb5f1c4	-0.35536015
91	0x3dc35813	0.09538283
92	0x3e38f73a	0.1806306
93	0x3ce3e091	0.027817043
94	0xbccc156f	-0.024912564
95	0xbe6a5457	-0.22883736
96	0x3de0eef9	0.109830804
97	0x3e38b295	0.18036874
98	0xbe4b963a	-0.19881526
99	0xbe12abb2	-0.14323309
100	0x3c082748	0.008310147
101	0xbe28f136	-0.16498265
102	0x3de3a50f	0.11115467
103	0xbd44f03f	-0.04808068
104	0xbeb697ac	-0.3566259
105	0xbe68a1e2	-0.22718003
106	0x3df8b8b3	0.121446036
107	0x3e0adfcb	0.13561933
108	0xbe046e9f	-0.12932824
109	0xbe91977f	-0.28435895
110	0xbced8418	-0.028993651
111	0xbe3c0998	-0.18363035
112	0xbe6d81ab	-0.23193996
113	0xbe4f5f4d	-0.20251198
114	0x3dfec1ff	0.124393456
115	0x3e14b3f2	0.14521769
116	0xbe83a08b	-0.25708422
117	0xbca06ebf	-0.019584058
118	0xbcce4b17	-0.02518229
119	0x3de2a8f8	0.110673845
120	0x3d8f1810	0.069870114
121	0xbe42b7b2	-0.19015387
122	0x3da030f6	0.078218386
123	0x3d445cf3	0.047940206
124	0xbeb8a380	-0.3606224
125	0x3daaf479	0.08347411
126	0xbe459aa6	-0.19297275
127	0xbe30d1bc	-0.17267507
128	0x3e4d8e20	0.20073748
129	0xbe591832	-0.21200636
130	0x3df55304	0.119787246
131	0xbe22d338	-0.15900886
132	0x3de6e0ab	0.11273321
133	0xbeb64065	-0.35596004
134	0x3dcb84aa	0.09937413
135	0xbe6713bf	-0.22566126
136	0xbdeac1ed	-0.1146277
137	0x3db7892d	0.08961711
138	0xbeb7baa4	-0.35884583
139	0xbe056b30	-0.1302917
140	0xbcfb3101	-0.030663015
141	0xbe26d977	-0.16293894
142	0x3d79ae7c	0.060957417
143	0xbe835b8f	-0.2565579
144	0xbe36d736	-0.17855534
145	0x3c71e693	0.014764446
146	0x3e91cc7b	0.2847632
147	0x3e21bda0	0.15794992
148	0x3e1e3f54	0.15453845
149	0xbd4e7126	-0.050400876
150	0x3e0c437e	0.13697621
151	0x3cf59462	0.029977981
152	0xbc9d9110	-0.01923421
153	0xbe00e66d	-0.125879
154	0x3d87d2d0	0.06632006
155	0xbe1f6f05	-0.15569694
156	0x3e3d2fc7	0.18475257
157	0x3dace27a	0.084416345
158	0x3e485d76	0.19566903
159	0xbe89d395	-0.26919237
160	0x3ce6972a	0.028148253
161	0x3da9324b	0.08261546
162	0x3d2db479	0.04240844
163	0x3dbc00ef	0.091798656
164	0xbd79f3ec	-0.061023638
165	0xbeb87727	-0.36028406
166	0x3e14ed4b	0.14543645
167	0xbe578c4e	-0.21049616
168	0x3e001ec4	0.12511736
169	0xbe521173	-0.20514469
170	0xbe49bead	-0.19701643
171	0x3cb12217	0.0216227
172	0x3dccf763	0.10008123
173	0x3daac0d8	0.08337563
174	0xbdbdd3df	-0.09268927
175	0x3e4cc5ce	0.19997332
176	0x3d95f7bc	0.07322642
177	0x3dd4893d	0.103777386
178	0x3dffec8d	0.1249629
179	0xbe24eaf4	-0.16105253
180	0x3dacd9b6	0.084399626
181	0x3d61b305	0.055102367
182	0xbe709d7f	-0.2349758
183	0xbe4f7faf	-0.20263551
184	0xbe0de298	-0.1385597
185	0x3e48de7b	0.1961612
186	0x3dc5f83a	0.09666486
187	0xbd2455b5	-0.0401208
188	0xbe627517	-0.22114979
189	0xbe44218e	-0.19153425
190	0x3d89e334	0.06732789
191	0xbb980460	-0.0046391934
192	0xbe96f2a5	-0.29481998
193	0xbe6bb8b1	-0.23019673
194	0xbe6981aa	-0.22803369
195	0x3db324ba	0.087472394
196	0xbe9b4b0d	-0.30330697
197	0x3db85908	0.09001356
198	0xbc71835d	-0.014740792
199	0xbe8478a5	-0.25873294
200	0x3dd63df5	0.10461036
201	0x3e402a76	0.18766198
202	0x3d068416	0.03284081
203	0xbe229f19	-0.15881003
204	0x3e5b27db	0.21401922
205	0x3dd6b85f	0.10484385
206	0xbd9e9a72	-0.07744302
207	0x3e5be718	0.21474874
208	0xbe650318	-0.22364461
209	0xbdaefce8	-0.08544332
210	0xbea92f72	-0.3304401
211	0xbe9ea3c4	-0.30984318
212	0xbd4001f0	-0.046876848
213	0x3d571484	0.0525098
214	0x3d807a4f	0.062733285
215	0x3bac6da5	0.005262094
216	0xbcf74750	-0.030185372
217	0xbe7bd041	-0.24591161
218	0x3d3a151f	0.0454303
219	0x3e62e6d9	0.22158374
220	0xbd2c1ef0	-0.04202169
221	0xbe400eca	-0.18755642
222	0x3d8928a0	0.06697202
223	0xbe8d17e3	-0.27557287
224	0xbe89b364	-0.26894677
225	0xbe6f4ee7	-0.23369943
226	0x3e55c4d0	0.2087586
227	0xbe6e5688	-0.23275197
228	0x3e28f927	0.16501294
229	0x3e2c0323	0.16798072
230	0x3d254c98	0.04035625
231	0xbc8f4e60	-0.017493427
232	0x3e09bd06	0.13451013
233	0xbe9bc9bc	-0.3042735
234	0xbe82a07c	-0.25513065
235	0x3e00e213	0.1258624
236	0xbe017cff	-0.12645338
237	0xbe787e2b	-0.2426688
238	0x3c425ed8	0.011863433
239	0x3c71e0b2	0.014763044
240	0x3dd5a327	0.104315095
241	0x3e1fa959	0.15591945
242	0x3d88a8cc	0.066728204
243	0xbe098853	-0.1343091
244	0x3da4c795	0.0804588
245	0xbe6b3a76	-0.2297152
246	0x3d1a516b	0.037675302
247	0x3e12d92e	0.1434066
248	0xbcfc1a38	-0.03077422
249	0xbe890794	-0.26763594
250	0xbe10a75e	-0.14126346
251	0xbe8cf26b	-0.275287
252	0x3dc0e6a1	0.09418989
253	0xbe03d10f	-0.12872718
254	0x3dc2bce6	0.09508686
255	0x3cb10a72	0.021611426

fc3.bias f4 [10]
0	0xbb80aa8b	-0.0039265803
1	0x3d5292e0	0.051409602
2	0xbd99735a	-0.07492705
3	0xbe120256	-0.14258704
4	0x3de35c26	0.1110156
5	0x3df8d521	0.12150026
6	0x3da72839	0.08161969
7	0x3d672574	0.056432202
8	0x3d5febf7	0.054668393
9	0xbc3aa191	-0.0113910595
